{
    "experiment_name": "seresnet_new_v2_16",
    "timestamp": "2026-02-17 16:08:51",
    "model_architecture": {
        "class_name": "SEResNet",
        "total_parameters": 1224711,
        "trainable_parameters": 1224711,
        "structure_summary": "SEResNet(\n  (initialconv): Sequential(\n    (0): Conv2d(19, 64, kernel_size=(3, 3), stride=(1, 1), padding=(1, 1), bias=False)\n    (1): BatchNorm2d(64, eps=1e-05, momentum=0.1, affine=True, track_running_stats=True)\n    (2): ReLU()\n  )\n  (res_tower): Sequential(\n    (0): ResidualBlock(\n      (conv1): Conv2d(64, 64, kernel_size=(3, 3), stride=(1, 1), padding=(1, 1), bias=False)\n      (conv2): Conv2d(64, 64, kernel_size=(3, 3), stride=(1, 1), padding=(1, 1), bias=False)\n      (bn1): BatchNorm2d(64, eps=1e-05, momentum=0.1, affine=True, track_running_stats=True)\n      (bn2): BatchNorm2d(64, eps=1e-05, momentum=0.1, affine=True, track_running_stats=True)\n      (relu): ReLU()\n      (se): SEBlock(\n        (avg_pool): AdaptiveAvgPool2d(output_size=1)\n        (mlp): Sequential(\n          (0): Linear(in_features=64, out_features=8, bias=True)\n          (1): ReLU(inplace=True)\n          (2): Linear(in_features=8, out_features=64, bias=True)\n          (3): Sigmoid()\n        )\n      )\n      (drop_path): Identity()\n    )\n    (1): ResidualBlock(\n      (conv1): Conv2d(64, 64, kernel_size=(3, 3), stride=(1, 1), padding=(1, 1), bias=False)\n      (conv2): Conv2d(64, 64, kernel_size=(3, 3), stride=(1, 1), padding=(1, 1), bias=False)\n      (bn1): BatchNorm2d(64, eps=1e-05, momentum=0.1, affine=True, track_running_stats=True)\n      (bn2): BatchNorm2d(64, eps=1e-05, momentum=0.1, affine=True, track_running_stats=True)\n      (relu): ReLU()\n      (se): SEBlock(\n        (avg_pool): AdaptiveAvgPool2d(output_size=1)\n        (mlp): Sequential(\n          (0): Linear(in_features=64, out_features=8, bias=True)\n          (1): ReLU(inplace=True)\n          (2): Linear(in_features=8, out_features=64, bias=True)\n          (3): Sigmoid()\n        )\n      )\n      (drop_path): DropPath()\n    )\n    (2): ResidualBlock(\n      (conv1): Conv2d(64, 64, kernel_size=(3, 3), stride=(1, 1), padding=(1, 1), bias=False)\n      (conv2): Conv2d(64, 64, kernel_size=(3, 3), stride=(1, 1), padding=(1, 1), bias=False)\n      (bn1): BatchNorm2d(64, eps=1e-05, momentum=0.1, affine=True, track_running_stats=True)\n      (bn2): BatchNorm2d(64, eps=1e-05, momentum=0.1, affine=True, track_running_stats=True)\n      (relu): ReLU()\n      (se): SEBlock(\n        (avg_pool): AdaptiveAvgPool2d(output_size=1)\n        (mlp): Sequential(\n          (0): Linear(in_features=64, out_features=8, bias=True)\n          (1): ReLU(inplace=True)\n          (2): Linear(in_features=8, out_features=64, bias=True)\n          (3): Sigmoid()\n        )\n      )\n      (drop_path): DropPath()\n    )\n    (3): ResidualBlock(\n      (conv1): Conv2d(64, 64, kernel_size=(3, 3), stride=(1, 1), padding=(1, 1), bias=False)\n      (conv2): Conv2d(64, 64, kernel_size=(3, 3), stride=(1, 1), padding=(1, 1), bias=False)\n      (bn1): BatchNorm2d(64, eps=1e-05, momentum=0.1, affine=True, track_running_stats=True)\n      (bn2): BatchNorm2d(64, eps=1e-05, momentum=0.1, affine=True, track_running_stats=True)\n      (relu): ReLU()\n      (se): SEBlock(\n        (avg_pool): AdaptiveAvgPool2d(output_size=1)\n        (mlp): Sequential(\n          (0): Linear(in_features=64, out_features=8, bias=True)\n          (1): ReLU(inplace=True)\n          (2): Linear(in_features=8, out_features=64, bias=True)\n          (3): Sigmoid()\n        )\n      )\n      (drop_path): DropPath()\n    )\n    (4): ResidualBlock(\n      (conv1): Conv2d(64, 64, kernel_size=(3, 3), stride=(1, 1), padding=(1, 1), bias=False)\n      (conv2): Conv2d(64, 64, kernel_size=(3, 3), stride=(1, 1), padding=(1, 1), bias=False)\n      (bn1): BatchNorm2d(64, eps=1e-05, momentum=0.1, affine=True, track_running_stats=True)\n      (bn2): BatchNorm2d(64, eps=1e-05, momentum=0.1, affine=True, track_running_stats=True)\n      (relu): ReLU()\n      (se): SEBlock(\n        (avg_pool): AdaptiveAvgPool2d(output_size=1)\n        (mlp): Sequential(\n          (0): Linear(in_features=64, out_features=8, bias=True)\n          (1): ReLU(inplace=True)\n          (2): Linear(in_features=8, out_features=64, bias=True)\n          (3): Sigmoid()\n        )\n      )\n      (drop_path): DropPath()\n    )\n    (5): ResidualBlock(\n      (conv1): Conv2d(64, 64, kernel_size=(3, 3), stride=(1, 1), padding=(1, 1), bias=False)\n      (conv2): Conv2d(64, 64, kernel_size=(3, 3), stride=(1, 1), padding=(1, 1), bias=False)\n      (bn1): BatchNorm2d(64, eps=1e-05, momentum=0.1, affine=True, track_running_stats=True)\n      (bn2): BatchNorm2d(64, eps=1e-05, momentum=0.1, affine=True, track_running_stats=True)\n      (relu): ReLU()\n      (se): SEBlock(\n        (avg_pool): AdaptiveAvgPool2d(output_size=1)\n        (mlp): Sequential(\n          (0): Linear(in_features=64, out_features=8, bias=True)\n          (1): ReLU(inplace=True)\n          (2): Linear(in_features=8, out_features=64, bias=True)\n          (3): Sigmoid()\n        )\n      )\n      (drop_path): DropPath()\n    )\n    (6): ResidualBlock(\n      (conv1): Conv2d(64, 64, kernel_size=(3, 3), stride=(1, 1), padding=(1, 1), bias=False)\n      (conv2): Conv2d(64, 64, kernel_size=(3, 3), stride=(1, 1), padding=(1, 1), bias=False)\n      (bn1): BatchNorm2d(64, eps=1e-05, momentum=0.1, affine=True, track_running_stats=True)\n      (bn2): BatchNorm2d(64, eps=1e-05, momentum=0.1, affine=True, track_running_stats=True)\n      (relu): ReLU()\n      (se): SEBlock(\n        (avg_pool): AdaptiveAvgPool2d(output_size=1)\n        (mlp): Sequential(\n          (0): Linear(in_features=64, out_features=8, bias=True)\n          (1): ReLU(inplace=True)\n          (2): Linear(in_features=8, out_features=64, bias=True)\n          (3): Sigmoid()\n        )\n      )\n      (drop_path): DropPath()\n    )\n    (7): ResidualBlock(\n      (conv1): Conv2d(64, 64, kernel_size=(3, 3), stride=(1, 1), padding=(1, 1), bias=False)\n      (conv2): Conv2d(64, 64, kernel_size=(3, 3), stride=(1, 1), padding=(1, 1), bias=False)\n      (bn1): BatchNorm2d(64, eps=1e-05, momentum=0.1, affine=True, track_running_stats=True)\n      (bn2): BatchNorm2d(64, eps=1e-05, momentum=0.1, affine=True, track_running_stats=True)\n      (relu): ReLU()\n      (se): SEBlock(\n        (avg_pool): AdaptiveAvgPool2d(output_size=1)\n        (mlp): Sequential(\n          (0): Linear(in_features=64, out_features=8, bias=True)\n          (1): ReLU(inplace=True)\n          (2): Linear(in_features=8, out_features=64, bias=True)\n          (3): Sigmoid()\n        )\n      )\n      (drop_path): DropPath()\n    )\n    (8): ResidualBlock(\n      (conv1): Conv2d(64, 64, kernel_size=(3, 3), stride=(1, 1), padding=(1, 1), bias=False)\n      (conv2): Conv2d(64, 64, kernel_size=(3, 3), stride=(1, 1), padding=(1, 1), bias=False)\n      (bn1): BatchNorm2d(64, eps=1e-05, momentum=0.1, affine=True, track_running_stats=True)\n      (bn2): BatchNorm2d(64, eps=1e-05, momentum=0.1, affine=True, track_running_stats=True)\n      (relu): ReLU()\n      (se): SEBlock(\n        (avg_pool): AdaptiveAvgPool2d(output_size=1)\n        (mlp): Sequential(\n          (0): Linear(in_features=64, out_features=8, bias=True)\n          (1): ReLU(inplace=True)\n          (2): Linear(in_features=8, out_features=64, bias=True)\n          (3): Sigmoid()\n        )\n      )\n      (drop_path): DropPath()\n    )\n    (9): ResidualBlock(\n      (conv1): Conv2d(64, 64, kernel_size=(3, 3), stride=(1, 1), padding=(1, 1), bias=False)\n      (conv2): Conv2d(64, 64, kernel_size=(3, 3), stride=(1, 1), padding=(1, 1), bias=False)\n      (bn1): BatchNorm2d(64, eps=1e-05, momentum=0.1, affine=True, track_running_stats=True)\n      (bn2): BatchNorm2d(64, eps=1e-05, momentum=0.1, affine=True, track_running_stats=True)\n      (relu): ReLU()\n      (se): SEBlock(\n        (avg_pool): AdaptiveAvgPool2d(output_size=1)\n        (mlp): Sequential(\n          (0): Linear(in_features=64, out_features=8, bias=True)\n          (1): ReLU(inplace=True)\n          (2): Linear(in_features=8, out_features=64, bias=True)\n          (3): Sigmoid()\n        )\n      )\n      (drop_path): DropPath()\n    )\n    (10): ResidualBlock(\n      (conv1): Conv2d(64, 64, kernel_size=(3, 3), stride=(1, 1), padding=(1, 1), bias=False)\n      (conv2): Conv2d(64, 64, kernel_size=(3, 3), stride=(1, 1), padding=(1, 1), bias=False)\n      (bn1): BatchNorm2d(64, eps=1e-05, momentum=0.1, affine=True, track_running_stats=True)\n      (bn2): BatchNorm2d(64, eps=1e-05, momentum=0.1, affine=True, track_running_stats=True)\n      (relu): ReLU()\n      (se): SEBlock(\n        (avg_pool): AdaptiveAvgPool2d(output_size=1)\n        (mlp): Sequential(\n          (0): Linear(in_features=64, out_features=8, bias=True)\n          (1): ReLU(inplace=True)\n          (2): Linear(in_features=8, out_features=64, bias=True)\n          (3): Sigmoid()\n        )\n      )\n      (drop_path): DropPath()\n    )\n    (11): ResidualBlock(\n      (conv1): Conv2d(64, 64, kernel_size=(3, 3), stride=(1, 1), padding=(1, 1), bias=False)\n      (conv2): Conv2d(64, 64, kernel_size=(3, 3), stride=(1, 1), padding=(1, 1), bias=False)\n      (bn1): BatchNorm2d(64, eps=1e-05, momentum=0.1, affine=True, track_running_stats=True)\n      (bn2): BatchNorm2d(64, eps=1e-05, momentum=0.1, affine=True, track_running_stats=True)\n      (relu): ReLU()\n      (se): SEBlock(\n        (avg_pool): AdaptiveAvgPool2d(output_size=1)\n        (mlp): Sequential(\n          (0): Linear(in_features=64, out_features=8, bias=True)\n          (1): ReLU(inplace=True)\n          (2): Linear(in_features=8, out_features=64, bias=True)\n          (3): Sigmoid()\n        )\n      )\n      (drop_path): DropPath()\n    )\n    (12): ResidualBlock(\n      (conv1): Conv2d(64, 64, kernel_size=(3, 3), stride=(1, 1), padding=(1, 1), bias=False)\n      (conv2): Conv2d(64, 64, kernel_size=(3, 3), stride=(1, 1), padding=(1, 1), bias=False)\n      (bn1): BatchNorm2d(64, eps=1e-05, momentum=0.1, affine=True, track_running_stats=True)\n      (bn2): BatchNorm2d(64, eps=1e-05, momentum=0.1, affine=True, track_running_stats=True)\n      (relu): ReLU()\n      (se): SEBlock(\n        (avg_pool): AdaptiveAvgPool2d(output_size=1)\n        (mlp): Sequential(\n          (0): Linear(in_features=64, out_features=8, bias=True)\n          (1): ReLU(inplace=True)\n          (2): Linear(in_features=8, out_features=64, bias=True)\n          (3): Sigmoid()\n        )\n      )\n      (drop_path): DropPath()\n    )\n    (13): ResidualBlock(\n      (conv1): Conv2d(64, 64, kernel_size=(3, 3), stride=(1, 1), padding=(1, 1), bias=False)\n      (conv2): Conv2d(64, 64, kernel_size=(3, 3), stride=(1, 1), padding=(1, 1), bias=False)\n      (bn1): BatchNorm2d(64, eps=1e-05, momentum=0.1, affine=True, track_running_stats=True)\n      (bn2): BatchNorm2d(64, eps=1e-05, momentum=0.1, affine=True, track_running_stats=True)\n      (relu): ReLU()\n      (se): SEBlock(\n        (avg_pool): AdaptiveAvgPool2d(output_size=1)\n        (mlp): Sequential(\n          (0): Linear(in_features=64, out_features=8, bias=True)\n          (1): ReLU(inplace=True)\n          (2): Linear(in_features=8, out_features=64, bias=True)\n          (3): Sigmoid()\n        )\n      )\n      (drop_path): DropPath()\n    )\n    (14): ResidualBlock(\n      (conv1): Conv2d(64, 64, kernel_size=(3, 3), stride=(1, 1), padding=(1, 1), bias=False)\n      (conv2): Conv2d(64, 64, kernel_size=(3, 3), stride=(1, 1), padding=(1, 1), bias=False)\n      (bn1): BatchNorm2d(64, eps=1e-05, momentum=0.1, affine=True, track_running_stats=True)\n      (bn2): BatchNorm2d(64, eps=1e-05, momentum=0.1, affine=True, track_running_stats=True)\n      (relu): ReLU()\n      (se): SEBlock(\n        (avg_pool): AdaptiveAvgPool2d(output_size=1)\n        (mlp): Sequential(\n          (0): Linear(in_features=64, out_features=8, bias=True)\n          (1): ReLU(inplace=True)\n          (2): Linear(in_features=8, out_features=64, bias=True)\n          (3): Sigmoid()\n        )\n      )\n      (drop_path): DropPath()\n    )\n    (15): ResidualBlock(\n      (conv1): Conv2d(64, 64, kernel_size=(3, 3), stride=(1, 1), padding=(1, 1), bias=False)\n      (conv2): Conv2d(64, 64, kernel_size=(3, 3), stride=(1, 1), padding=(1, 1), bias=False)\n      (bn1): BatchNorm2d(64, eps=1e-05, momentum=0.1, affine=True, track_running_stats=True)\n      (bn2): BatchNorm2d(64, eps=1e-05, momentum=0.1, affine=True, track_running_stats=True)\n      (relu): ReLU()\n      (se): SEBlock(\n        (avg_pool): AdaptiveAvgPool2d(output_size=1)\n        (mlp): Sequential(\n          (0): Linear(in_features=64, out_features=8, bias=True)\n          (1): ReLU(inplace=True)\n          (2): Linear(in_features=8, out_features=64, bias=True)\n          (3): Sigmoid()\n        )\n      )\n      (drop_path): DropPath()\n    )\n  )\n  (bottleneck): Sequential(\n    (0): Conv2d(64, 32, kernel_size=(1, 1), stride=(1, 1), bias=False)\n    (1): BatchNorm2d(32, eps=1e-05, momentum=0.1, affine=True, track_running_stats=True)\n    (2): ReLU()\n  )\n  (classifier): Sequential(\n    (0): AdaptiveAvgPool2d(output_size=(1, 1))\n    (1): Flatten(start_dim=1, end_dim=-1)\n    (2): Linear(in_features=32, out_features=256, bias=True)\n    (3): ReLU()\n    (4): Dropout(p=0.5, inplace=False)\n    (5): Linear(in_features=256, out_features=7, bias=True)\n  )\n)"
    },
    "datasets": {
        "train": "dataset_planes_cp\\train_X.npy",
        "val": "dataset_planes_cp\\val_X.npy",
        "test": "dataset_planes_cp\\test_X.npy"
    },
    "hyperparameters": {
        "epochs": 100,
        "batch_size": 512,
        "learning_rate": 0.001,
        "optimizer": "AdamW"
    },
    "device": "NVIDIA GeForce RTX 3070"
…
