{
    "experiment_name": "run_2026_01_15_probs_seresnet_droppath_c128_bn_v8",
    "timestamp": "2026-01-16 21:03:26",
    "model_architecture": {
        "class_name": "SEResNet",
        "total_parameters": 3549287,
        "trainable_parameters": 3549287,
        "input_dim": 775,
        "output_dim": 7,
        "structure_summary": "SEResNet(\n  (initialconv): Sequential(\n    (0): Conv2d(19, 128, kernel_size=(3, 3), stride=(1, 1), padding=(1, 1), bias=False)\n    (1): BatchNorm2d(128, eps=1e-05, momentum=0.1, affine=True, track_running_stats=True)\n    (2): ReLU()\n  )\n  (res_tower): Sequential(\n    (0): ResidualBlock(\n      (conv1): Conv2d(128, 128, kernel_size=(3, 3), stride=(1, 1), padding=(1, 1), bias=False)\n      (conv2): Conv2d(128, 128, kernel_size=(3, 3), stride=(1, 1), padding=(1, 1), bias=False)\n      (bn1): BatchNorm2d(128, eps=1e-05, momentum=0.1, affine=True, track_running_stats=True)\n      (bn2): BatchNorm2d(128, eps=1e-05, momentum=0.1, affine=True, track_running_stats=True)\n      (relu): ReLU()\n      (se): SEBlock(\n        (avg_pool): AdaptiveAvgPool2d(output_size=1)\n        (mlp): Sequential(\n          (0): Linear(in_features=128, out_features=16, bias=True)\n          (1): ReLU(inplace=True)\n          (2): Linear(in_features=16, out_features=128, bias=True)\n          (3): Sigmoid()\n        )\n      )\n      (drop_path): Identity()\n    )\n    (1): ResidualBlock(\n      (conv1): Conv2d(128, 128, kernel_size=(3, 3), stride=(1, 1), padding=(1, 1), bias=False)\n      (conv2): Conv2d(128, 128, kernel_size=(3, 3), stride=(1, 1), padding=(1, 1), bias=False)\n      (bn1): BatchNorm2d(128, eps=1e-05, momentum=0.1, affine=True, track_running_stats=True)\n      (bn2): BatchNorm2d(128, eps=1e-05, momentum=0.1, affine=True, track_running_stats=True)\n      (relu): ReLU()\n      (se): SEBlock(\n        (avg_pool): AdaptiveAvgPool2d(output_size=1)\n        (mlp): Sequential(\n          (0): Linear(in_features=128, out_features=16, bias=True)\n          (1): ReLU(inplace=True)\n          (2): Linear(in_features=16, out_features=128, bias=True)\n          (3): Sigmoid()\n        )\n      )\n      (drop_path): DropPath()\n    )\n    (2): ResidualBlock(\n      (conv1): Conv2d(128, 128, kernel_size=(3, 3), stride=(1, 1), padding=(1, 1), bias=False)\n      (conv2): Conv2d(128, 128, kernel_size=(3, 3), stride=(1, 1), padding=(1, 1), bias=False)\n      (bn1): BatchNorm2d(128, eps=1e-05, momentum=0.1, affine=True, track_running_stats=True)\n      (bn2): BatchNorm2d(128, eps=1e-05, momentum=0.1, affine=True, track_running_stats=True)\n      (relu): ReLU()\n      (se): SEBlock(\n        (avg_pool): AdaptiveAvgPool2d(output_size=1)\n        (mlp): Sequential(\n          (0): Linear(in_features=128, out_features=16, bias=True)\n          (1): ReLU(inplace=True)\n          (2): Linear(in_features=16, out_features=128, bias=True)\n          (3): Sigmoid()\n        )\n      )\n      (drop_path): DropPath()\n    )\n    (3): ResidualBlock(\n      (conv1): Conv2d(128, 128, kernel_size=(3, 3), stride=(1, 1), padding=(1, 1), bias=False)\n      (conv2): Conv2d(128, 128, kernel_size=(3, 3), stride=(1, 1), padding=(1, 1), bias=False)\n      (bn1): BatchNorm2d(128, eps=1e-05, momentum=0.1, affine=True, track_running_stats=True)\n      (bn2): BatchNorm2d(128, eps=1e-05, momentum=0.1, affine=True, track_running_stats=True)\n      (relu): ReLU()\n      (se): SEBlock(\n        (avg_pool): AdaptiveAvgPool2d(output_size=1)\n        (mlp): Sequential(\n          (0): Linear(in_features=128, out_features=16, bias=True)\n          (1): ReLU(inplace=True)\n          (2): Linear(in_features=16, out_features=128, bias=True)\n          (3): Sigmoid()\n        )\n      )\n      (drop_path): DropPath()\n    )\n    (4): ResidualBlock(\n      (conv1): Conv2d(128, 128, kernel_size=(3, 3), stride=(1, 1), padding=(1, 1), bias=False)\n      (conv2): Conv2d(128, 128, kernel_size=(3, 3), stride=(1, 1), padding=(1, 1), bias=False)\n      (bn1): BatchNorm2d(128, eps=1e-05, momentum=0.1, affine=True, track_running_stats=True)\n      (bn2): BatchNorm2d(128, eps=1e-05, momentum=0.1, affine=True, track_running_stats=True)\n      (relu): ReLU()\n      (se): SEBlock(\n        (avg_pool): AdaptiveAvgPool2d(output_size=1)\n        (mlp): Sequential(\n          (0): Linear(in_features=128, out_features=16, bias=True)\n          (1): ReLU(inplace=True)\n          (2): Linear(in_features=16, out_features=128, bias=True)\n          (3): Sigmoid()\n        )\n      )\n      (drop_path): DropPath()\n    )\n    (5): ResidualBlock(\n      (conv1): Conv2d(128, 128, kernel_size=(3, 3), stride=(1, 1), padding=(1, 1), bias=False)\n      (conv2): Conv2d(128, 128, kernel_size=(3, 3), stride=(1, 1), padding=(1, 1), bias=False)\n      (bn1): BatchNorm2d(128, eps=1e-05, momentum=0.1, affine=True, track_running_stats=True)\n      (bn2): BatchNorm2d(128, eps=1e-05, momentum=0.1, affine=True, track_running_stats=True)\n      (relu): ReLU()\n      (se): SEBlock(\n        (avg_pool): AdaptiveAvgPool2d(output_size=1)\n        (mlp): Sequential(\n          (0): Linear(in_features=128, out_features=16, bias=True)\n          (1): ReLU(inplace=True)\n          (2): Linear(in_features=16, out_features=128, bias=True)\n          (3): Sigmoid()\n        )\n      )\n      (drop_path): DropPath()\n    )\n    (6): ResidualBlock(\n      (conv1): Conv2d(128, 128, kernel_size=(3, 3), stride=(1, 1), padding=(1, 1), bias=False)\n      (conv2): Conv2d(128, 128, kernel_size=(3, 3), stride=(1, 1), padding=(1, 1), bias=False)\n      (bn1): BatchNorm2d(128, eps=1e-05, momentum=0.1, affine=True, track_running_stats=True)\n      (bn2): BatchNorm2d(128, eps=1e-05, momentum=0.1, affine=True, track_running_stats=True)\n      (relu): ReLU()\n      (se): SEBlock(\n        (avg_pool): AdaptiveAvgPool2d(output_size=1)\n        (mlp): Sequential(\n          (0): Linear(in_features=128, out_features=16, bias=True)\n          (1): ReLU(inplace=True)\n          (2): Linear(in_features=16, out_features=128, bias=True)\n          (3): Sigmoid()\n        )\n      )\n      (drop_path): DropPath()\n    )\n    (7): ResidualBlock(\n      (conv1): Conv2d(128, 128, kernel_size=(3, 3), stride=(1, 1), padding=(1, 1), bias=False)\n      (conv2): Conv2d(128, 128, kernel_size=(3, 3), stride=(1, 1), padding=(1, 1), bias=False)\n      (bn1): BatchNorm2d(128, eps=1e-05, momentum=0.1, affine=True, track_running_stats=True)\n      (bn2): BatchNorm2d(128, eps=1e-05, momentum=0.1, affine=True, track_running_stats=True)\n      (relu): ReLU()\n      (se): SEBlock(\n        (avg_pool): AdaptiveAvgPool2d(output_size=1)\n        (mlp): Sequential(\n          (0): Linear(in_features=128, out_features=16, bias=True)\n          (1): ReLU(inplace=True)\n          (2): Linear(in_features=16, out_features=128, bias=True)\n          (3): Sigmoid()\n        )\n      )\n      (drop_path): DropPath()\n    )\n    (8): ResidualBlock(\n      (conv1): Conv2d(128, 128, kernel_size=(3, 3), stride=(1, 1), padding=(1, 1), bias=False)\n      (conv2): Conv2d(128, 128, kernel_size=(3, 3), stride=(1, 1), padding=(1, 1), bias=False)\n      (bn1): BatchNorm2d(128, eps=1e-05, momentum=0.1, affine=True, track_running_stats=True)\n      (bn2): BatchNorm2d(128, eps=1e-05, momentum=0.1, affine=True, track_running_stats=True)\n      (relu): ReLU()\n      (se): SEBlock(\n        (avg_pool): AdaptiveAvgPool2d(output_size=1)\n        (mlp): Sequential(\n          (0): Linear(in_features=128, out_features=16, bias=True)\n          (1): ReLU(inplace=True)\n          (2): Linear(in_features=16, out_features=128, bias=True)\n          (3): Sigmoid()\n        )\n      )\n      (drop_path): DropPath()\n    )\n    (9): ResidualBlock(\n      (conv1): Conv2d(128, 128, kernel_size=(3, 3), stride=(1, 1), padding=(1, 1), bias=False)\n      (conv2): Conv2d(128, 128, kernel_size=(3, 3), stride=(1, 1), padding=(1, 1), bias=False)\n      (bn1): BatchNorm2d(128, eps=1e-05, momentum=0.1, affine=True, track_running_stats=True)\n      (bn2): BatchNorm2d(128, eps=1e-05, momentum=0.1, affine=True, track_running_stats=True)\n      (relu): ReLU()\n      (se): SEBlock(\n        (avg_pool): AdaptiveAvgPool2d(output_size=1)\n        (mlp): Sequential(\n          (0): Linear(in_features=128, out_features=16, bias=True)\n          (1): ReLU(inplace=True)\n          (2): Linear(in_features=16, out_features=128, bias=True)\n          (3): Sigmoid()\n        )\n      )\n      (drop_path): DropPath()\n    )\n  )\n  (bottleneck): Sequential(\n    (0): Conv2d(128, 32, kernel_size=(1, 1), stride=(1, 1), bias=False)\n    (1): BatchNorm2d(32, eps=1e-05, momentum=0.1, affine=True, track_running_stats=True)\n    (2): ReLU()\n  )\n  (classifier): Sequential(\n    (0): Flatten(start_dim=1, end_dim=-1)\n    (1): Linear(in_features=2048, out_features=256, bias=True)\n    (2): ReLU()\n    (3): Dropout(p=0.2, inplace=False)\n    (4): Linear(in_features=256, out_features=7, bias=True)\n  )\n)"
    },
    "datasets": {
        "train": "dataset_planes_cp\\plane_train.npz",
        "val": "dataset_planes_cp\\plane_val.npz",
        "test": "dataset_planes_cp\\plane_test.npz"
    },
    "hyperparameters": {
        "epochs": 100,
        "batch_size": 512,
        "learning_rate": 0.001,
        "optimizer": "AdamW",
        "input_shape": 775,
…
